…
        "norm_num_groups": 32,
        "num_latents": 2,
        "num_mid_blocks": 0,
        "num_upscalers": 2,
        "out_channels": 30,
        "parametrization": "gaussian",
        "pretrained_path": null,
        "resize_input": false,
        "scaling_factor": 0.2,
        "skip_encoder": false,
        "upscale_channels": 256
    },
    "val_db_name": "kitti",
    "wandb": false
}
2025-04-21 16:21:23.519638
pretrained_model_path /root/autodl-tmp/stable-diffusion-v1-4
Interpolation factor:  2
Parametrization:  gaussian
Activation function:  none
GeneralVAESeg(
  (encoder): Sequential(
    (0): Conv2d(10, 32, kernel_size=(3, 3), stride=(1, 1), padding=(1, 1))
    (1): SiLU()
    (2): Conv2d(32, 32, kernel_size=(3, 3), stride=(1, 1), padding=(1, 1))
    (3): Conv2d(32, 64, kernel_size=(3, 3), stride=(2, 2), padding=(1, 1))
    (4): SiLU()
    (5): Conv2d(64, 64, kernel_size=(3, 3), stride=(1, 1), padding=(1, 1))
    (6): Conv2d(64, 128, kernel_size=(3, 3), stride=(2, 2), padding=(1, 1))
    (7): SiLU()
    (8): Conv2d(128, 128, kernel_size=(3, 3), stride=(1, 1), padding=(1, 1))
    (9): Conv2d(128, 256, kernel_size=(3, 3), stride=(2, 2), padding=(1, 1))
    (10): SiLU()
    (11): Conv2d(256, 256, kernel_size=(3, 3), stride=(1, 1), padding=(1, 1))
    (12): Identity()
    (13): GroupNorm(32, 256, eps=1e-06, affine=True)
    (14): SiLU()
    (15): Conv2d(256, 8, kernel_size=(3, 3), stride=(1, 1), padding=(1, 1))
  )
  (decoder): Sequential(
    (0): Conv2d(4, 256, kernel_size=(3, 3), stride=(1, 1), padding=(1, 1))
    (1): Identity()
    (2): ConvTranspose2d(256, 256, kernel_size=(2, 2), stride=(2, 2))
    (3): LayerNorm2d()
    (4): SiLU()
    (5): ConvTranspose2d(256, 256, kernel_size=(2, 2), stride=(2, 2))
    (6): LayerNorm2d()
    (7): SiLU()
    (8): GroupNorm(32, 256, eps=1e-05, affine=True)
    (9): SiLU()
    (10): Conv2d(256, 30, kernel_size=(3, 3), stride=(1, 1), padding=(1, 1))
  )
)
Number of trainable parameters: 1.80M
Batch size per process is 32
Workers per process is 8
Warning -- Using gradient clipping of 3.0
Most likely not enough memory for training
Please use zero redundancy optimizer with adamw
AdamW (
Parameter Group 0
    amsgrad: False
    betas: [0.9, 0.999]
    capturable: False
    differentiable: False
…
        "norm_num_groups": 32,
        "num_latents": 2,
        "num_mid_blocks": 0,
        "num_upscalers": 2,
        "out_channels": 128,
        "parametrization": "gaussian",
        "pretrained_path": null,
        "resize_input": false,
        "scaling_factor": 0.2,
        "skip_encoder": false,
        "upscale_channels": 256
    },
    "val_db_name": "kitti",
    "wandb": false
}
2025-04-21 17:38:08.827248
pretrained_model_path /root/autodl-tmp/stable-diffusion-v1-4
Interpolation factor:  2
Parametrization:  gaussian
Activation function:  none
GeneralVAESeg(
  (encoder): Sequential(
    (0): Conv2d(10, 32, kernel_size=(3, 3), stride=(1, 1), padding=(1, 1))
    (1): SiLU()
    (2): Conv2d(32, 32, kernel_size=(3, 3), stride=(1, 1), padding=(1, 1))
    (3): Conv2d(32, 64, kernel_size=(3, 3), stride=(2, 2), padding=(1, 1))
    (4): SiLU()
    (5): Conv2d(64, 64, kernel_size=(3, 3), stride=(1, 1), padding=(1, 1))
    (6): Conv2d(64, 128, kernel_size=(3, 3), stride=(2, 2), padding=(1, 1))
    (7): SiLU()
    (8): Conv2d(128, 128, kernel_size=(3, 3), stride=(1, 1), padding=(1, 1))
    (9): Conv2d(128, 256, kernel_size=(3, 3), stride=(2, 2), padding=(1, 1))
    (10): SiLU()
    (11): Conv2d(256, 256, kernel_size=(3, 3), stride=(1, 1), padding=(1, 1))
    (12): Identity()
    (13): GroupNorm(32, 256, eps=1e-06, affine=True)
    (14): SiLU()
    (15): Conv2d(256, 8, kernel_size=(3, 3), stride=(1, 1), padding=(1, 1))
  )
  (decoder): Sequential(
    (0): Conv2d(4, 256, kernel_size=(3, 3), stride=(1, 1), padding=(1, 1))
    (1): Identity()
    (2): ConvTranspose2d(256, 256, kernel_size=(2, 2), stride=(2, 2))
    (3): LayerNorm2d()
    (4): SiLU()
    (5): ConvTranspose2d(256, 256, kernel_size=(2, 2), stride=(2, 2))
    (6): LayerNorm2d()
    (7): SiLU()
    (8): GroupNorm(32, 256, eps=1e-05, affine=True)
    (9): SiLU()
    (10): Conv2d(256, 128, kernel_size=(3, 3), stride=(1, 1), padding=(1, 1))
  )
)
Number of trainable parameters: 2.02M
Batch size per process is 32
Workers per process is 8
Warning -- Using gradient clipping of 3.0
Most likely not enough memory for training
Please use zero redundancy optimizer with adamw
AdamW (
Parameter Group 0
    amsgrad: False
    betas: [0.9, 0.999]
    capturable: False
    differentiable: False
…
